jetleg_control/model/high_score_tmp.pth (torch, 144863 bytes, 4 tensors)

nn_layers.0.weight f4 [1024, 25]
0.61527306 -0.06169384 -0.058050547 -0.015431453 -0.40778357 -0.01942662 1.1977975 0.10160141
-0.27035448 0.060174502 0.97249836 -0.22883074 0.04182723 0.9337142 -0.0840329 -0.39742967
0.12609015 0.983604 0.7292464 0.40872625 0.3303759 -0.12433695 -0.41145366 0.13541234
0.927916 0.2936659 -0.050717097 0.05780193 0.007852394 -0.48881114 -0.1555981 1.1538123
0.2288945 -0.23696318 0.0057093035 1.2050921 -0.4899047 -0.07069289 0.99738324 -0.009353574
-0.52143186 0.26962325 1.2244236 0.927367 0.27744338 0.45440918 0.15480451 -0.2630558
-0.094069295 1.1335318 0.54716974 -0.1477743 -0.24452348 -0.12888384 -0.33738935 -0.121760234
0.7158193 0.1567111 -0.3137567 -0.10243791 0.5461288 -0.050036144 -0.13618462 0.50215054
0.07738006 -0.31362227 0.08052661 0.9148873 0.34346288 0.032364007 0.23645286 0.09051502
-0.41543445 -0.10189015 0.630633 0.05897166 0.48179173 0.16690803 -0.04051369 0.1580386
0.118910685 0.35320097 0.0069218758 -0.0955271 -0.085731946 -0.047063023 0.26101917 -0.18918984
0.27918524 0.10908783 0.062193044 -0.055324536 -0.01627215 0.023744877 -0.10927265 -0.014227088
0.07789331 0.19398493 0.06780857 -0.02143129 0.50032383 0.004482338 -0.17015031 0.17322731
-0.16913758 -0.12516904 0.9015657 0.04526533 -0.38375515 -0.09429793 0.8672229 -0.14302623
0.19894695 0.8304007 -0.035140887 -0.2661947 -0.110152975 0.8904457 0.63796574 0.07496653
0.3217005 -0.00011188188 -0.07521021 0.18933333 0.8174361 0.18550083 0.040351763 0.09451752
-0.12911907 -0.19690113 -0.082399964 0.77165 0.22081083 -0.21313101 0.3300364 0.81707746
-0.2869503 -0.18802994 0.6625923 0.20006879 0.0030839797 0.22716185 0.730608 0.72117347
0.24746601 -0.05635409 0.22916874 -0.29824015 -0.014314672 0.9270983 -0.56177187 0.12854522
-0.03052504 -0.11008624 0.35509756 0.032231838 -0.5995279 -0.21212319 0.2467762 0.100763805
-0.6988164 0.39235115 -0.07508997 -0.64751226 -0.09638476 0.40379918 -0.12286648 -0.78933907
-0.61731994 -0.3103716 -0.41650113 0.10238717 0.27280906 -0.04132551 -0.7957577 0.7164955
-0.11941326 -0.114090554 0.19043297 -0.5105561 0.08218983 1.423432 -0.06348978 -0.39617756
0.20484325 1.2230706 -0.42626148 0.15880366 1.2903765 -0.13594057 -0.18402304 -0.080131374
1.0312445 0.6537925 0.27378187 0.5849104 0.08532893 -0.51865464 0.16460712 1.3062154
-0.21072716 0.031455394 0.19044316 0.03670359 -0.18956828 0.07874499 0.102355644 0.07010439
0.032796156 -0.12291279 0.12666419 0.03312154 -0.036242984 -0.23840076 0.0040431875 0.14123479
0.10618544 0.001880672 -0.20405707 0.1527306 -0.001080774 -0.028411614 0.095061444 0.054952458
-0.23680326 0.42744753 -0.058597732 -0.010153109 0.11330718 -0.45444977 -0.21297659 1.5227873
0.2696365 -0.31806853 0.26297545 1.2240319 -0.33216804 0.02321044 1.2998258 -0.0011358131
-0.46976858 0.22166261 1.0458114 0.75455517 0.40930894 0.59476304 0.34226185 -0.5433919
0.16295317 0.972034 0.4891675 -0.023373948 -0.1917974 0.14651918 -0.27829564 -0.027123451
00000000: 8982 1d3f aeb2 7cbd 69c6 6dbd 34d4 7cbc
00000010: 02c9 d0be 9324 9fbc 6e51 993f 6614 d03d
00000020: e76b 8abe 8a79 763d a7f5 783f 9b52 6abe
00000030: 0853 2b3d e507 6f3f 7119 acbd e77b cbbe
00000040: c71d 013e 79cd 7b3f e4af 3a3f 9144 d13e
00000050: 0827 a93e 5fa4 febd 0eaa d2be 88a9 0a3e
00000060: e78b 6d3f 605b 963e bbbc 4fbd b7c1 6c3d
00000070: 54a7 003c 7445 fabe 1c55 1fbe 1fb0 933f
00000080: 5263 6a3e 7aa6 72be 1c15 bb3b 7540 9a3f
00000090: cad4 fabe 6fc7 90bd 8254 7f3f bc3f 19bc
000000a0: 8f7c 05bf 0f0c 8a3e eab9 9c3f ec67 6d3f
000000b0: 0f0d 8e3e 52a8 e83e 1385 1e3e 40af 86be
000000c0: 67a7 c0bd 9217 913f 5113 0c3f 2552 17be
000000d0: 5d64 7abe 20fa 03be 4cbe acbe 6e5d f9bd
000000e0: ef3f 373f e078 203e b8a4 a0be f8ca d1bd
000000f0: 19cf 0b3f b3f2 4cbd fb73 0bbe f08c 003f
00000100: 7079 9e3d 1993 a0be 23eb a43d 0e36 6a3f
00000110: 5eda af3e 1f90 043d b320 723e f05f b93d
00000120: d3b3 d4be c8ab d0bd 2a71 213f 448c 713d
00000130: 68ad f63e f0e9 2a3e aff1 25bd dfd4 213e
00000140: 7287 f33d c2d6 b43e e7d0 e23b b6a3 c3bd
00000150: 3b94 afbd 28c5 40bd 4ea4 853e fbba 41be
00000160: 5ef1 8e3e 7169 df3d 22be 7e3d fb9b 62bd
00000170: 2c4d 85bc 9e84 c23c 57ca dfbd bb18 69bc
00000180: 8786 9f3d fca3 463e 38df 8a3d ac90 afbc
00000190: 3915 003f 94e0 923b e23b 2ebe 8062 313e
000001a0: 6732 2dbe 502c 00be 02cd 663f 2368 393d
000001b0: 8e7b c4be 461f c1bd 5202 5e3f 7875 12be
000001c0: c0b8 4b3e 2495 543f e4ef 0fbd ac4a 88be
000001d0: e297 e1bd 40f4 633f b951 233f 0d88 993d
000001e0: eeb5 a43e 20a2 eab8 d007 9abd 99e0 413e
000001f0: 7e43 513f eef3 3d3e e447 253d 6792 c13d
00000200: ca37 04be 73a0 49be 50c1 a8bd db8a 453f
00000210: 3c1c 623e 043f 5abe 88fa a83e fd2b 513f
00000220: 26eb 92be ec8a 40be a69f 293f d5de 4c3e
00000230: 981c 4a3b 1e9d 683e 2009 3b3f d39e 383f
00000240: bb67 7d3e 8cd3 66bd 36ab 6a3e efb2 98be
00000250: 1688 6abc 5056 6d3f 48d0 0fbf 5ca1 033e
00000260: a60f fabc e574 e1bd 59cf b53e 8805 043d
00000270: a97a 19bf d236 59be e6b2 7c3e 415d ce3d
00000280: a2e5 32bf 40e2 c83e c5c8 99bd 5dc3 25bf
00000290: 6065 c5bd c4be ce3e 6ca1 fbbd 2012 4abf
000002a0: ae08 1ebf 07e9 9ebe a33f d5be 5db0 d13d
000002b0: a1ad 8b3e f044 29bd c7b6 4bbf 406c 373f
000002c0: f08e f4bd 4fa8 e9bd dc00 433e ceb3 02bf
000002d0: 2453 a83d 0533 b63f ee06 82bd c9d7 cabe
000002e0: 6ec2 513e 948d 9c3f f23e dabe 6d9d 223e
000002f0: 0f2b a53f 0134 0bbe 8970 3cbe eb1b a4bd
00000300: d2ff 833f f25e 273f 232d 8c3e b0bc 153f
00000310: efc0 ae3d 8dc6 04bf c58e 283e 1132 a73f
00000320: dcc8 57be 5fd7 003d 8803 433e 8156 163d
00000330: 301e 42be 0e45 a13d d69f d13d e492 8f3d
00000340: 4355 063d b3b9 fbbd 42b4 013e 74aa 073d
00000350: 8673 14bd 541f 74be b77c 843b da9f 103e
00000360: c177 d93d e180 f63a 56f4 50be 6965 1c3e
00000370: c2a8 8dba 79bf e8bc 93af c23d d415 613d
00000380: 8e7c 72be 67da da3e 2d04 70bd 3a59 26bc
00000390: 980d e83d a4ad e8be 8916 5abe b2ea c23f
000003a0: cc0d 8a3e e1d9 a2be b8a4 863e 14ad 9c3f
000003b0: ee11 aabe d223 be3c b160 a63f 90df 94ba
000003c0: 8285 f0be 86fb 623e 26dd 853f 872a 413f
000003d0: f190 d13e 6442 183f f23c af3e bb1b 0bbf
000003e0: 32dd 263e 38d7 783f 2a74 fa3e b97a bfbc
000003f0: 8a66 44be 2009 163e c47c 8ebe 0032 debc

nn_layers.0.bias f4 [1024]
0.9761306 1.0833936 0.72799015 -0.035711564 0.8236988 0.860904 -0.7611058 1.0941563
-0.171052 1.2572514 1.05956 1.1732332 0.45114565 0.9604149 0.980909 0.25918955
-0.09714621 -0.19687404 0.87757623 0.37179533 1.3060544 -0.09102116 0.07772311 -0.33373004
0.3073525 0.8371947 0.8274197 -0.13382451 1.0149823 0.7907001 0.15092546 0.5185054
1.0633507 1.1261984 -0.0468347 -0.0024668034 0.004065991 -0.00840692 1.0828837 1.1227221
-0.11137727 1.0743502 1.2395818 0.92103475 0.98502433 0.009703718 -0.16988267 0.9007846
1.1106406 0.83470887 0.28430703 -0.0033947045 1.2312111 -0.19326161 0.4857984 -0.1564087
1.0150571 0.014251994 -0.16403575 -0.15745796 1.0114299 -0.26411542 1.1767249 0.29277053
0.8765879 -0.6632928 -0.12051405 -0.053114507 -0.14746955 -0.117484935 1.2510175 -0.144249
0.42415118 -0.19436696 -0.14160545 -0.27568558 0.18273558 0.2043545 -0.06891378 -0.64185095
-0.014124273 -0.78986317 -0.10571543 -0.027971158 0.1403864 -0.21797699 -0.019524932 1.0218039
-0.007918 0.7209304 -0.13834973 0.70018756 0.97598714 -0.02719163 1.0012473 1.217694
1.331322 0.234821 0.07137963 -0.47288254 0.40469638 0.8354552 0.6831997 -0.098221846
-0.13441822 0.25636816 0.2953456 1.3453896 -0.82929486 1.0613196 1.2280922 0.87169796
-0.2156452 0.8372011 1.0322373 0.91549593 -0.14883602 -0.0748262 -0.22954476 1.0330038
0.9667997 -0.062024835 0.8388364 0.85274714 0.92613816 0.45021763 -0.2162343 0.9814171
0.113792896 -0.031370766 0.16786575 0.17393282 0.94417465 -0.13323222 -0.1825781 -0.15780841
-0.09878737 0.56556207 0.07152715 1.2584096 -0.13857915 -0.09704774 -0.34369642 0.7598174
0.032654252 1.0064063 0.8896369 1.3242259 0.7099695 -0.039439954 0.10958927 0.81642985
0.9121863 -0.17631282 -0.009273782 0.10033747 -0.10494198 -0.14508145 -0.31491452 0.87667704
1.1152543 0.7032947 0.023799706 0.042620394 0.9839847 0.7709458 1.1324515 0.9218256
0.3890521 -0.6462031 0.049806602 0.080745526 -0.23463206 1.1102923 0.23745541 -0.19433717
1.2100185 -1.0798392 0.3060494 0.9646299 1.0604904 -0.25592658 1.1088048 -0.3962297
1.1604748 0.9242952 -0.016661096 1.0171268 0.7767166 -0.08759928 -0.031795423 0.9882664
0.74614805 1.2007811 -0.22683291 0.38898143 -0.17678097 0.0031550955 -0.013755235 -0.30493295
0.60740745 0.053341232 -0.116147324 -0.10882769 0.19198392 0.8773543 0.9824845 -0.19222715
-0.08896283 1.0737365 0.1929281 -0.030333243 0.82587475 0.33896175 0.8472309 -0.036421325
1.1427101 0.9840765 0.94627815 0.058715366 1.1176199 0.98046666 0.82082385 -0.30630636
0.84039515 -0.1825155 -0.27865937 1.1276293 0.30541304 1.0913815 0.061987747 -0.33718362
-0.21462789 1.1078973 0.053172596 0.14852643 1.0999513 -1.0677286 1.0274817 -0.12020569
0.119029656 0.6564997 0.05220588 0.6506486 -0.13894469 0.24164748 -0.08878739 -0.29925206
-0.10320215 0.8349089 0.9508222 1.0353363 -0.025031537 0.70958495 -0.17132385 1.0567724
00000000: b2e3 793f a4ac 8a3f 905d 3a3f 4a46 12bd
00000010: eddd 523f 3464 5c3f d4d7 42bf 500d 8c3f
00000020: 4128 2fbe 9ded a03f a99f 873f 812c 963f
00000030: 90fc e63e c0dd 753f da1c 7b3f 7eb4 843e
00000040: 98f4 c6bd 5999 49be d6a8 603f f55b be3e
00000050: ca2c a73f 4d69 babd 4b2d 9f3d aade aabe
00000060: 4f5d 9d3e 6452 563f c7d1 533f 4b09 09be
00000070: f1ea 813f 526b 4a3f 348c 1a3e c5bc 043f
00000080: e01b 883f 4527 903f bed5 3fbd 18aa 21bb
00000090: 013c 853b 2ebd 09bc ef9b 8a3f 5cb5 8f3f
000000a0: c419 e4bd 4f84 893f 9eaa 9e3f efc8 6b3f
000000b0: 8e2a 7c3f 58fc 1e3c b9f5 2dbe d299 663f
000000c0: 7929 8e3f 7baf 553f b190 913e b179 5ebb
000000d0: 5398 9d3f 5fe6 45be 91ba f83e 9a29 20be
000000e0: 64ed 813f 3281 693c fdf8 27be a93c 21be
000000f0: 8976 813f 233a 87be ec9e 963f 05e6 953e
00000100: 1168 603f 8fcd 29bf 12d0 f6bd 998e 59bd
00000110: 4202 17be f19b f0bd 5721 a03f 03b6 13be
00000120: 582a d93e 2208 47be 0501 11be a926 8dbe
00000130: 091f 3b3e 4e42 513e ab22 8dbd 5850 24bf
00000140: 7f69 67bc 7934 4abf 5581 d8bd c523 e5bc
00000150: 74c1 0f3e 5c35 5fbe c0f2 9fbc 78ca 823f
00000160: 80ba 01bc e58e 383f 8dab 0dbe 7e3f 333f
00000170: 4bda 793f fbc0 debc df28 803f 66dd 9b3f
00000180: c268 aa3f eb74 703e 7c2f 923d a91d f2be
00000190: 5d34 cf3e 64e0 553f 2de6 2e3f 8928 c9bd
000001a0: eea4 09be b042 833e 8a37 973e ba35 ac3f
000001b0: ab4c 54bf 52d9 873f 2032 9d3f 9927 5f3f
000001c0: 18d2 5cbe d052 563f 5a20 843f f15d 6a3f
000001d0: 7868 18be 7b3e 99bd c80d 6bbe 7839 843f
000001e0: 2f80 773f c10d 7ebd fbbd 563f a34d 5a3f
000001f0: 6417 6d3f ed82 e63e 866c 5dbe 273e 7b3f
00000200: 400c e93d a27e 00bd 00e5 2b3e 721b 323e
00000210: 6eb5 713f 076e 08be c1f5 3abe 8798 21be
00000220: 0851 cabd adc8 103f d47c 923d 9113 a13f
00000230: b1e7 0dbe f7c0 c6bd faf8 afbe 6583 423f
00000240: 77c0 053d ecd1 803f 3ebf 633f 3c80 a93f
00000250: 90c0 353f ca8b 21bd 5770 e03d 8c01 513f
00000260: 0b85 693f 598b 34be 10f1 17bc bb7d cd3d
00000270: d2eb d6bd 3b90 14be 7a3c a1be e86d 603f
00000280: a7c0 8e3f 1f0b 343f 9af7 c23c b992 2e3d
00000290: 6ce6 7b3f b45c 453f 2cf4 903f c3fc 6b3f
000002a0: d631 c73e 916d 25bf 0202 4c3d e95d a53d
000002b0: 6343 70be 0f1e 8e3f 8327 733e 5300 47be
000002c0: e3e1 9a3f 2c38 8abf 82b2 9c3e fcf1 763f
000002d0: 26be 873f cf08 83be 51ed 8d3f 9fde cabe
000002e0: 708a 943f 9c9e 6c3f da7c 88bc 3631 823f
000002f0: e6d6 463f 4067 b3bd eb3b 02bd 07ff 7c3f
00000300: 8f03 3f3f 32b3 993f e346 68be 9328 c73e
00000310: 1206 35be b8c5 4e3b a35d 61bc 2c20 9cbe
00000320: 0e7f 1b3f 567c 5a3d a6de edbd 0de1 debd
00000330: 6f97 443e 4b9a 603f 1b84 7b3f 32d7 44be
00000340: 2532 b6bd 3370 893f f28e 453e 6c7d f8bc
00000350: 876c 533f 658c ad3e 20e4 583f 872e 15bd
00000360: 5344 923f 70ec 7b3f 493f 723f 867f 703d
00000370: 2b0e 8f3f ddff 7a3f 8321 523f 30d4 9cbe
00000380: 2324 573f 58e5 3abe 71ac 8ebe 2856 903f
00000390: 195f 9c3e 64b2 8b3f dde6 7d3d 55a3 acbe
000003a0: 6ac7 5bbe 94cf 8d3f 82cb 593d 5017 183e
000003b0: 34cb 8c3f 55ab 88bf 8584 833f 672e f6bd
000003c0: d2c5 f33d 5d10 283f d5d5 553d e890 263f
000003d0: 8447 0ebe 7072 773e 2ad6 b5bd 9137 99be
000003e0: a65b d3bd 97bc 553f 1569 733f e685 843f
000003f0: f00e cdbc 5ca7 353f 856f 2fbe 5144 873f

nn_layers.1.weight f4 [9, 1024]
0.19892228 0.21855532 0.16949148 -0.2067988 0.15496506 0.16930132 -0.15961903 0.19175152
-0.010001202 0.23014887 0.21265492 0.1939832 0.11801192 0.20395651 0.21188077 0.13542844
-0.0045808116 -0.14298661 0.20826788 0.20257089 0.23309061 -0.023109695 0.06565093 -0.13451432
0.1520721 0.16585031 0.16346574 -0.06931491 0.21638624 0.15069741 0.11919051 0.18537623
0.21724594 0.20415723 -0.00929231 0.071808465 -0.033042602 0.0016305076 0.19869787 0.23182851
-0.008930233 0.20347446 0.2068867 0.18128118 0.19681954 -0.030906335 -0.012643002 0.15077868
0.19357982 0.19113834 0.11981265 0.12180107 0.25649098 0.0068940483 0.12819557 -0.029620266
0.18409263 0.08959107 -0.018786367 -0.032192808 0.20530342 -0.16274098 0.23213014 0.104415365
0.22266577 -0.16925173 -0.0028818864 0.074551105 0.015753426 -0.014409695 0.19227262 -0.068283536
0.16210112 -0.06496184 -0.041754566 -0.18013431 -0.023310764 0.12525374 -0.016665544 -0.18572761
0.0028257319 -0.16255373 -0.041173734 0.035314802 0.009424606 0.007945663 0.01857069 0.20324875
-0.021942766 0.13766554 -0.0028353704 0.19424705 0.20394668 0.08373161 0.20063205 0.23183781
0.2616772 0.11160672 -0.018553467 -0.17279676 0.099082366 0.16949266 0.15772134 -0.107492454
0.0895621 0.10502352 0.08749069 0.22641824 -0.18574013 0.21178839 0.27293473 0.18053919
-0.028469853 0.19009742 0.19660105 0.19497429 0.03637947 -0.021208787 -0.0273583 0.19625685
0.18971768 0.13411736 0.17819673 0.18797493 0.17279544 0.18867026 -0.07002113 0.18410666
0.09161238 -0.14375076 -2.637061e-05 7.489609e-06 0.19582221 -0.15395404 -0.019812208 -0.11436283
-0.0038302236 0.14656441 0.0749923 0.23589846 -0.05928549 0.008291768 -0.15268661 0.20961471
-0.010959544 0.18656413 0.19480775 0.23044638 0.13916022 -0.13429342 0.10073964 0.18031412
0.19100927 -0.01708731 0.03131586 -0.0071074762 0.0035862015 -0.0880671 -0.14525454 0.17981508
0.21546032 0.18540514 0.05094385 0.09007531 0.21056679 0.17614987 0.20821634 0.19902897
0.14636321 -0.18516919 -0.020523485 -0.009396774 -0.015147714 0.21254903 0.03949613 -0.021221349
0.23165558 -0.19610108 0.13204087 0.1872208 0.23490359 -0.091235146 0.2035572 -0.21200846
0.18027274 0.19571915 -0.02817625 0.2158708 0.20445703 0.062948756 0.13696027 0.17551543
0.19414774 0.2169757 -0.035806265 0.14486416 -0.0036965343 0.0004843336 0.0023713436 -0.1073166
0.14750019 0.08563156 0.008784252 0.0053913137 0.026800962 0.17159438 0.22412351 -0.0276361
-0.017244047 0.1868321 0.017531805 -0.15110311 0.19422339 0.10851343 0.18949093 0.0929022
0.20619495 0.19923525 0.23842001 -0.02753762 0.22959289 0.22078793 0.17019014 -0.16167654
0.20348899 -0.037646923 -0.13308232 0.20602365 0.1299961 0.23289861 -0.032069057 -0.1463918
-0.024271846 0.20267394 0.050798535 -0.035353098 0.23058733 -0.16789886 0.19363609 -0.10340429
-0.053584047 0.1615908 0.08241415 0.16689564 0.041685395 0.13303599 -0.04389822 -0.09150246
0.014274164 0.14271799 0.22011946 0.20991924 -0.0022205806 0.17114241 -0.15521263 0.21115899
00000000: 48b2 4b3e f7cc 5f3e 2d8f 2d3e 11c3 53be
00000010: 29af 1e3e 535d 2d3e 2c73 23be 835a 443e
00000020: 15dc 23bc 25ac 6b3e 36c2 593e 88a3 463e
00000030: 3cb0 f13d fad9 503e 46f7 583e c1ad 0a3e
00000040: a21a 96bb 156b 12be 2d44 553e be6e 4f3e
00000050: 4eaf 6e3e 8b50 bdbc ff73 863d 1fbe 09be
00000060: cab8 1b3e aad4 293e 9063 273e faf4 8dbd
00000070: 5b94 5d3e 6c50 1a3e 271a f43d 44d3 3d3e
00000080: b875 5e3e 980e 513e c63e 18bc 5110 933d
00000090: ae57 07bd c2b6 d53a 7477 4b3e 7464 6d3e
000000a0: 1d50 12bc 9c5b 503e 1bda 533e c6a1 393e
000000b0: 108b 493e 482f fdbc 9824 4fbc ba65 1a3e
000000c0: ca39 463e c5b9 433e 5660 f53d d772 f93d
000000d0: c952 833e 78e7 e13b b345 033e 33a6 f2bc
000000e0: c782 3c3e 867b b73d dee5 99bc 9bdc 03bd
000000f0: 0f3b 523e 92a5 26be 86b3 6d3e b9d7 d53d
00000100: 7f02 643e 5350 2dbe 08de 3cbb 40ae 983d
00000110: 540d 813c a416 6cbc 1de3 443e 3dd8 8bbd
00000120: d6fd 253e b70a 85bd d606 2bbd 2175 38be
00000130: 37f6 bebc 8442 003e 2e86 88bc 612f 3ebe
00000140: ea2f 393b 7c74 26be caa5 28bd 41a6 103d
00000150: aa69 1a3c 872e 023c 8f21 983c 7120 503e
00000160: 51c1 b3bc 32f8 0c3e 9fd1 39bb b3e8 463e
00000170: 66d7 503e 7a7b ab3d 7d72 4d3e e466 6d3e
00000180: 8efa 853e 1092 e43d 71fd 97bc a2f1 30be
00000190: b2eb ca3d 7c8f 2d3e b481 213e 0125 dcbd
000001a0: 566c b73d 9216 d73d 522e b33d 2fda 673e
000001b0: a932 3ebe 0edf 583e 1abe 8b3e 44df 383e
000001c0: 9c39 e9bc e6a8 423e c951 493e 57a7 473e
000001d0: a402 153d 0dbe adbc 831e e0bc 8ef7 483e
000001e0: 5a45 423e 1056 093e 3479 363e 807c 403e
000001f0: 4af1 303e c732 413e 3d67 8fbd 7586 3c3e
00000200: 469f bb3d 6633 13be 7436 ddb7 404f fb36
00000210: 9e85 483e 21a6 1dbe 364d a2bc 0f37 eabd
00000220: 7d04 7bbb fb14 163e 9095 993d 5e8f 713e
00000230: 58d5 72bd 32da 073c e159 1cbe 3da5 563e
00000240: a98f 33bc ab0a 3f3e af7b 473e 23fa 6b3e
00000250: 0480 0e3e 3784 09be 9650 ce3d 44a4 383e
00000260: ef97 433e b0fa 8bbc 0f45 003d d5e5 e8bb
00000270: 7a06 6b3b 865c b4bd 9bbd 14be 7221 383e
00000280: a1a1 5c3e d8da 3d3e 80aa 503d 6779 b83d
00000290: d29e 573e a260 343e aa36 553e 40ce 4b3e
000002a0: 3de0 153e fe9c 3dbe de20 a8bc edf4 19bc
000002b0: 1e2e 78bc 74a6 593e b2c6 213d 65d8 adbc
000002c0: 1f37 6d3e b9ce 48be b935 073e cfb6 3f3e
000002d0: 918a 703e 7ed9 babd 4c71 503e bf18 59be
000002e0: 6b99 383e 9a6a 483e e1d1 e6bc 3c0d 5d3e
000002f0: 2f5d 513e 47eb 803d 503f 0c3e 51ba 333e
00000300: aace 463e e12e 5e3e 97a9 12bd 4557 143e
00000310: 8e41 72bb 28ee fd39 8b68 1b3b cec8 dbbd
00000320: 4a0a 173e 995f af3d d3eb 0f3c 9ea9 b03b
00000330: b18d db3c 70b6 2f3e a280 653e 1a65 e2bc
00000340: 6343 8dbc ea50 3f3e dc9e 8f3c c6ba 1abe
00000350: 7fe2 463e 4a3c de3d e909 423e 8243 be3d
00000360: c524 533e 5304 4c3e 6024 743e 9396 e1bc
00000370: 661a 6b3e 3b16 623e 5346 2e3e 898e 25be
00000380: 6b5f 503e a933 1abd bb46 08be ddf7 523e
00000390: b31d 053e f97c 6e3e d85a 03bd bbe7 15be
000003a0: c0d5 c6bc c289 4f3e 2012 503d 69ce 10bd
000003b0: 161f 6c3e aeed 2bbe 8a48 463e a1c5 d3bd
000003c0: f27a 5bbd 0f78 253e c0c8 a83d b1e6 2a3e
000003d0: 4ebe 2a3d 963a 083e 9fce 33bd a465 bbbd
000003e0: 2fde 693c aa24 123e ff66 613e 12f5 563e
000003f0: 2987 11bb f53f 2f3e 0ff0 1ebe 103a 583e

nn_layers.1.bias f4 [9]
0.09201337 0.1374353 0.1331528 0.12940438 0.112006605 0.120757505 0.17182368 0.139802
0.12684363
00000000: 8171 bc3d d7bb 0c3e 3559 083e 9582 043e
00000010: b863 e53d b64f f73d 8cf2 2f3e 4128 0f3e
00000020: 4ce3 013e
