jetleg_control/model/low_cost_tmp.pth (torch, 144863 bytes, 4 tensors)

nn_layers.0.weight f4 [1024, 25]
00000000: c536 0a3f e291 6abd a46d 2d3e 306b 1a3c
00000010: 49a3 1fbf 7d79 20bd 77c7 483f 7656 973d
00000020: 1013 e3be ed65 943c d50f 213f eff1 debe
00000030: 28d4 bc3c 73c2 253f ddb4 ebbd 10ad 18bf
00000040: 516b a93d b76b 263f 2668 a23e 7ab0 a73e
00000050: 913e 1b3f 0897 24be 065e 15bf c113 c13d
00000060: eb96 193f 0223 693e 28ee 2ebd 8abd 8a3e
00000070: 6252 083d 6370 2fbf 328a 3dbe bbef 413f
00000080: 9413 5c3e 8f65 cbbe 2e18 21bd a5d9 5e3f
00000090: 7a43 2dbf bb80 d1bd 2b9b 383f 8e0c ccbc
000000a0: 2743 34bf a92c 653e 250a 663f 13b4 0a3f
000000b0: c99b 403e f05c 383f 5e41 0b3e 2f26 d7be
000000c0: 536a 0dbe 2d1b 503f 29bf e53e ab14 18be
000000d0: 0842 f0bc 2b4b d6bd caa1 07bf 9407 1dbe
000000e0: 9f0f db3e 8071 0f3e 0539 eebe d31b d9bd
000000f0: 410a 913e 9285 6dbe 8fb6 27be b483 9a3e
00000100: 1b28 6d3d 17b7 fcbe e9cb 9a3d 6a69 283f
00000110: 2018 2e3c a152 d6bb 22ca fb3e 6816 883d
00000120: ec51 11bf 4e18 d7bd 6ff5 c03e 8454 85bc
00000130: 14ad 963e fef5 1a3e 161f 67bd 12b0 263e
00000140: 2b86 fc3d c0e4 5c3e 9af5 133c 4e7e 41bd
00000150: 5a1a 86bd 6ff6 17be cee1 803e 8f02 39be
00000160: 0b55 1c3e b767 e93d 5bc3 983d 2653 14bd
00000170: dc8b f3bd 51ef aebd fb8f b0bd 6860 bdbd
00000180: 0b77 a53d 70f7 4c3e cb21 b23d 42ad fcbd
00000190: 78a5 d63e 6014 833c 0f21 1b3d e724 4d3e
000001a0: 8c1f c0be 7a54 0dbe 9ec4 143f 9682 8d3c
000001b0: 6d87 0dbf ee7e 0bbe bfe1 133f 0983 adbe
000001c0: 7510 3b3e d834 1d3f a27f 81bd 5c7d ebbe
000001d0: 2e25 1dbe 8381 1b3f cc14 953e ddc4 3dbc
000001e0: e69c 183f 65c5 02bd 8ece 79be 68a3 173e
000001f0: 6ec9 093f 26e4 ea3d 3072 413d 68b6 943e
00000200: 61da d9bd 5821 d3be 2121 04be 7279 cf3e
00000210: 2a84 563e 2368 c6be e2eb 8f3e f480 ff3e
00000220: 426e f9be 1f33 70be 51f5 d33e a9f2 3c3e
00000230: 9ad6 49be df97 353e dfb8 d73e 7362 b03e
00000240: 0a6a 263e bee2 763e 6077 553e cb6f f2be
00000250: 3ad4 7cbd 0426 1f3f 448e fdbe a977 fa3d
00000260: 1894 61be 0f2a eebd f730 0d3f 48bd 873d
00000270: fca2 abbe 5ebc 48be 18eb ce3e 8221 fd3d
00000280: c64d e3be fdf5 133f 74f7 38bd d6fe efbe
00000290: e254 99bd 1057 153f 43a5 c9bd 372b 0abf
000002a0: 9944 9fbe a47a 81be 02d6 2dbf 6969 043e
000002b0: 1f52 dc3e c726 a0bc 8b9b 0cbf 3c76 243f
000002c0: db9e e7bd 5d32 d23d 60a3 5a3e e1d2 36bf
000002d0: f038 3c3d 80c0 7c3f c0ed a4bd 6f35 0fbf
000002e0: ae15 1e3e 5914 5d3f d611 1ebf 0503 fa3d
000002f0: 22b1 7c3f 05e5 1dbe 9d12 bebe c112 07be
00000300: db94 2e3f 3b1c 7d3e fb59 3f3e 5a4b 5b3f
00000310: 3c6f 783d 65de 2dbf cb3c ec3d 484b 763f
00000320: ba3c 03be 0541 843d 16e3 ec3d a7eb 1a3d
00000330: 54e2 d0bd 1627 0db9 a9fc 043e abde 103e
00000340: a475 c73d 7666 a9bd b8dc 2d3e f0c1 f23d
00000350: b5d4 d7bd 1840 53be 800f 8c3d 9336 5a3e
00000360: fb76 173e 135c 363d 90c3 11be fee1 403e
00000370: b8d3 653d 898d 303d fe9d 263e d82c c43d
00000380: 6288 46be 9711 b13e ac86 5cbd aa2a 453e
00000390: 025a 0b3e 14f0 26bf bc0e 80be e1b3 873f
000003a0: 5d09 823e 56b3 f2be d9f6 553e bf8b 5a3f
000003b0: ae72 04bf c919 5fbc e206 7a3f f389 a8bc
000003c0: 53d0 26bf 49be 2a3e 9abb 2f3f 6b9e b03e
000003d0: 687b a23e 8913 5d3f 4aaa a23e a055 33bf
000003e0: bf05 e23d 5535 1e3f 0279 d53e 7ff1 93bc
000003f0: 9425 003d ef33 2d3e 4519 f7be 1388 a2bd
0.5398982 -0.05726803 0.16936356 0.00942497 -0.6235853 -0.03917836 0.7842936 0.07389538
-0.4435048 0.018115008 0.6291478 -0.43543956 0.023050383 0.6474983 -0.11509106 -0.5963907
0.08272422 0.6500811 0.31720084 0.32751828 0.60642344 -0.16073239 -0.58346593 0.09427596
0.5999591 0.2276726 -0.042707592 0.27097732 0.03328169 -0.68530864 -0.18509749 0.75756425
0.21491843 -0.3972592 -0.0393297 0.8705085 -0.67681086 -0.102296315 0.7211177 -0.02490833
-0.70414966 0.22380318 0.8985923 0.5418102 0.18809427 0.7201681 0.13599154 -0.4202132
-0.1381009 0.81291467 0.44872406 -0.14851634 -0.029328361 -0.10463556 -0.52981246 -0.15334922
0.42785355 0.1400814 -0.46527877 -0.1060101 0.28328136 -0.23195484 -0.16378234 0.30178607
0.057899576 -0.49358436 0.07558424 0.6578585 0.010625869 -0.006540612 0.49177653 0.06644899
-0.5676563 -0.105026826 0.3768725 -0.016275652 0.29428923 0.15132901 -0.05642613 0.16278103
0.12330278 0.21571636 0.009030724 -0.047239594 -0.06547995 -0.148401 0.25172275 -0.18067382
0.15266816 0.11396735 0.07459136 -0.03621211 -0.118919104 -0.0854174 -0.08621212 -0.09246904
0.08079346 0.20016265 0.08697852 -0.12337734 0.41923118 0.016000926 0.037873324 0.20033608
-0.37524068 -0.13801757 0.58112514 0.017274182 -0.5528477 -0.13622639 0.57766336 -0.33889034
0.18267997 0.6140876 -0.06323172 -0.4599408 -0.15346214 0.60744494 0.2911743 -0.01158258
0.5961441 -0.03192653 -0.243952 0.14808428 0.5382298 0.11469297 0.04722804 0.29045415
-0.106373556 -0.41236377 -0.12903263 0.40522343 0.20948854 -0.38751325 0.28109652 0.4990307
-0.48716933 -0.23457001 0.413981 0.18451943 -0.1971077 0.17733715 0.42133233 0.3445011
0.16251388 0.24109933 0.20846319 -0.47350916 -0.061725833 0.6216738 -0.49522603 0.122298546
-0.2202915 -0.11629116 0.5515284 0.066278994 -0.33522785 -0.19603106 0.40413737 0.12359907
-0.44395274 0.57797223 -0.045157865 -0.46874112 -0.07486893 0.5833597 -0.09845974 -0.5397219
-0.31107023 -0.2528888 -0.67904675 0.12930836 0.43031403 -0.01954974 -0.5492484 0.6424291
-0.11309596 0.10263512 0.21351385 -0.71415526 0.045952737 0.9873123 -0.0805316 -0.5594091
0.15437958 0.86359173 -0.61745965 0.12207607 0.98707783 -0.15419395 -0.37123576 -0.13190748
0.68195885 0.247178 0.18686669 0.8566185 0.060652956 -0.6791747 0.11535033 0.9620862
-0.12816134 0.06457714 0.11566751 0.03782239 -0.10199419 -0.00013461369 0.12987007 0.14147441
0.09739235 -0.08271496 0.16978729 0.11853397 -0.105386175 -0.20629919 0.06838894 0.21309881
0.14791481 0.044521403 -0.14234757 0.18836209 0.056110114 0.04310373 0.16271207 0.09578866
-0.19387963 0.34583732 -0.05383937 0.19254556 0.13608554 -0.6521008 -0.2501124 1.060177
0.2539777 -0.47402447 0.20894946 0.85369486 -0.5173749 -0.0136169875 0.9766675 -0.020573592
-0.6516163 0.1667415 0.6864563 0.34495863 0.31734776 0.86357933 0.31770545 -0.7005253
0.11036252 0.6180013 0.41693884 -0.01805949 0.031285837 0.16914342 -0.48261467 -0.0793611

nn_layers.0.bias f4 [1024]
00000000: 87c8 313f 549f 4e3f 6cae 003f cf91 f5bd
00000010: 83f4 133f d0cd 173f a33a 09bf 5571 4c3f
00000020: a323 01be f791 743f bf4a 423f 890b 623f
00000030: 2736 9d3e 1b69 2c3f 2895 383f 2b9c 853d
00000040: 8415 cbbd f39f 17be 3577 153f 2e60 6e3e
00000050: bf96 813f e657 debd 4120 81bd b0b2 80be
00000060: f480 253e 2777 0f3f 8d46 0f3f 44be 2cbe
00000070: 3346 383f cc27 0c3f 9f47 b73b 3a74 a43e
00000080: 1395 463f 125a 543f 563d 41bd 50e7 03be
00000090: 9b75 e23b 250b ab3b ad52 483f 3666 563f
000000a0: 07a2 ddbd faa5 473f 2d4a 733f 4f5d 283f
000000b0: 0f4a 323f b28e 033d 47fb 29be 8f9c 283f
000000c0: 0d13 553f 30f4 0c3f f3c3 a43d 5931 ccbd
000000d0: 6b6d 6d3f ac89 4cbe 8883 963e ef71 0fbe
000000e0: e5f4 3f3f ee5c dbbd 9494 35be a8b8 f2bd
000000f0: 5280 373f b4ce 26be ef53 603f b0b6 1a3e
00000100: 1822 1a3f b32c debe 1c22 fcbd b982 1dbe
00000110: 242a 1abe 9e9b eebd 0af7 763f 79b0 16be
00000120: cefa 853e 0391 45be 842b 10be 2453 31be
00000130: 17e2 c73d 8820 b03d 8311 8bbd 4d7e cbbe
00000140: 067a b0bc b03e 0cbf 7f4f a3bd 4429 68bd
00000150: d001 153e a71e 4fbe 2a16 293d 0f16 403f
00000160: 7706 ccbc c992 fa3e f226 03be 97d7 df3e
00000170: 067b 2e3f bebc 0fbe 0175 3d3f b55c 683f
00000180: 154a 833f 80a8 263d 64e4 963d 9f67 aebe
00000190: ad05 903e 49e2 123f 9de1 eb3e c7da a2bd
000001a0: 6c39 01be 5331 bd3d 5caf 673e 2b0f 863f
000001b0: 4f1b 11bf a1e0 463f 8123 6b3f 65b8 1b3f
000001c0: 890f 46be 1e12 0b3f a2d8 3c3f ab66 253f
000001d0: 6005 0fbe a998 83bd b18a 47be df84 4b3f
000001e0: ed01 313f 686c 38be 4455 183f 672d 123f
000001f0: 8805 2c3f 60cf a13e 1022 5bbe d035 363f
00000200: 8e31 e3bb 71f5 aa3c d1c7 293e b96e a43d
00000210: be1b 243f 8f4b 8bbc ce54 4cbe e8b7 21be
00000220: dcde 20be aaa2 af3e e457 2e3a c6fd 773f
00000230: 685e c3bd 104b a6bd 7f15 7bbe d2d1 f43e
00000240: 2041 ca3d e0fd 3b3f 0a43 233f 2e8f 843f
00000250: 02dd f13e 05c6 04bd d938 a0bc abd7 0b3f
00000260: 6197 1f3f d1e5 28be 9434 81bd ef81 b53d
00000270: 4b8b 01be 33b6 a4bd 2726 84be 7b75 1c3f
00000280: 5e5b 513f 6b9e de3e 50b8 e638 6345 1ebd
00000290: 5b67 313f 2571 013f d542 543f a8e2 213f
000002a0: 5c98 3b3e 58a1 dfbe 3f4b 8a3d e615 e33d
000002b0: f341 2dbe 6d2b 503f 9608 5e3e 4f85 3abe
000002c0: e3b7 6c3f 2df6 4cbf 2354 cd3d 0aa1 2c3f
000002d0: f43a 423f 36c7 38be 4063 4f3f 8cbe 9ebe
000002e0: e4e2 5d3f b1eb 263f ea91 5ebd 037a 403f
000002f0: 1d75 033f 7994 1cbe 46b8 11be 5522 3b3f
00000300: 63b8 e63e 3cea 653f 9a7e 5cbe 42e2 533e
00000310: 28b9 35be d470 32bc 587a fbbb f62e 43be
00000320: 2be8 d73e 5ed0 04bd 48ce c4bd 4a29 09be
00000330: 4701 9f3d 03ba 1a3f 3966 2e3f f3ce 42be
00000340: 1610 9bbd 05ac 493f 03b2 203e 4b70 b4bb
00000350: cf85 0c3f b94e 433e a10c 163f a101 eabd
00000360: 9d8f 593f 445e 393f d72b 253f 912f 9c3d
00000370: c149 553f 0540 2e3f 6445 0b3f 2641 12be
00000380: 3f9e 0e3f a990 10be 8156 6fbe e673 543f
00000390: 4058 123e 58fd 483f 0fe2 613d 6e67 90be
000003a0: 0f15 52be 59fb 4f3f f624 b3bd 108e 183e
000003b0: bb56 513f dfed 4bbf 68c6 3e3f f967 9abd
000003c0: 1b0d 363e 5865 d73e c534 64bd 5a65 c73e
000003d0: dbb3 31be f7a9 2d3d f74b 29be 468d 74be
000003e0: 8dbc 9cbd 2428 153f 2c9b 273f 3981 3f3f
000003f0: f9f5 70bd ac2d e93e 7bd0 ffbd f8c6 453f
0.69446605 0.80711865 0.50266147 -0.119907014 0.5779497 0.5929842 -0.536051 0.7986043
-0.1261125 0.95535225 0.75895303 0.8829885 0.30705377 0.6734788 0.72102594 0.06523927
-0.09916213 -0.1480711 0.5838502 0.23278877 1.0124129 -0.10856609 -0.0630498 -0.25136328
0.16162473 0.5604119 0.55967027 -0.16869456 0.71982116 0.54748225 0.0055932547 0.32119924
0.7757122 0.82949936 -0.047177635 -0.12881207 0.0069109923 0.0052198344 0.78251153 0.8374971
-0.1082192 0.77987635 0.9503506 0.6576738 0.69644254 0.032118507 -0.16599761 0.6586389
0.83232194 0.550601 0.08045187 -0.0997035 0.92745084 -0.19974393 0.29397225 -0.14008306
0.74983054 -0.10711084 -0.1773246 -0.11851627 0.71680176 -0.16289788 0.8762807 0.15108752
0.6020827 -0.43393478 -0.12311193 -0.15381898 -0.15055138 -0.116507754 0.964707 -0.14715756
0.2616791 -0.19293599 -0.140791 -0.17316872 0.0975992 0.08599955 -0.067904495 -0.39744797
-0.02154256 -0.54783154 -0.07974147 -0.05667998 0.14551473 -0.20226537 0.041280903 0.7503366
-0.024905426 0.48940113 -0.12807825 0.4371917 0.6815647 -0.14036843 0.7400666 0.9076646
1.0256983 0.040688038 0.07367781 -0.34063432 0.2812933 0.57376534 0.46070567 -0.07951885
-0.12619561 0.092379235 0.22625488 1.0473379 -0.56682295 0.77686507 0.9185105 0.6082824
-0.19341864 0.5432452 0.73768055 0.64609784 -0.13966894 -0.06425602 -0.194865 0.7949962
0.69143564 -0.18010104 0.59505105 0.5710053 0.6719594 0.31603527 -0.21399713 0.7117586
-0.0069333976 0.020868989 0.1658013 0.08028931 0.6410483 -0.017003803 -0.19954225 -0.15792811
-0.15710014 0.3430379 0.000665067 0.968716 -0.09539491 -0.08119786 -0.24519919 0.4781633
0.09875703 0.7343426 0.6377417 1.0356195 0.47238928 -0.03241541 -0.019558357 0.5462596
0.6234036 -0.16493918 -0.063088566 0.088626735 -0.12650792 -0.08042564 -0.25810358 0.6111676
0.8178004 0.43480238 0.000110015855 -0.03864039 0.6929833 0.5056327 0.8291448 0.63236475
0.18319839 -0.43677783 0.06752633 0.11088161 -0.16919689 0.8131626 0.21682963 -0.18214916
0.9246809 -0.80063134 0.100258134 0.67433226 0.75871205 -0.18044743 0.8101082 -0.3100475
0.8667433 0.65203387 -0.054338373 0.75186175 0.51350576 -0.15291013 -0.14230451 0.7309926
0.4506255 0.8981054 -0.2153267 0.2069178 -0.17746413 -0.010891158 -0.0076744966 -0.19060883
0.42169318 -0.032425277 -0.096096575 -0.13394657 0.077639155 0.6044008 0.6812473 -0.19024257
-0.075714275 0.78778106 0.15692906 -0.0055065504 0.54891676 0.19072999 0.5861302 -0.11426092
0.8498476 0.7240946 0.6452002 0.0762626 0.83315665 0.68066436 0.54402757 -0.14282665
0.55710214 -0.14117683 -0.23372842 0.82989347 0.14291477 0.7851157 0.055147227 -0.2820391
-0.20515846 0.812429 -0.08747284 0.14897943 0.81772965 -0.7965984 0.74521494 -0.075393625
0.17778437 0.42069507 -0.055714387 0.38944513 -0.17353766 0.04239842 -0.16532885 -0.23882017
-0.07653151 0.58264375 0.6547115 0.74806553 -0.058828328 0.45542657 -0.12490936 0.7725673

nn_layers.1.weight f4 [9, 1024]
00000000: 8e09 313e d703 483e 437f 143e eff1 10be
00000010: 73b5 043e 6331 153e 26f8 0abe c5e3 2a3e
00000020: 53cc 553c 192a 543e 4ba9 413e 26b4 2e3e
00000030: 0eaf bc3d a090 373e 172e 403e bf60 d03d
00000040: e3fa 02b9 66e8 e1bd 3f25 3c3e 3ce1 363e
00000050: df0e 563e c011 26bc ff28 d2bc 9eb0 e4bd
00000060: c68a f23d 0ba8 103e 1a48 0f3e 6cea 62bd
00000070: cd3d 453e b97c 013e 7a0d 993d e8af 223e
00000080: 283b 453e 5a60 383e 4d88 67bb c868 1ebd
00000090: a2cf d7bc fda1 d13b 7687 323e 8ead 553e
000000a0: 8c7e c8bb b667 373e e2cf 3c3e 739c 213e
000000b0: c3ac 2f3e e31d bdbc bab8 b8bc 9163 003e
000000c0: 8ba1 2d3e a9c3 283e b35b bc3d 8ead 993d
000000d0: 4af0 6e3e a34c 4a3c c58c c43d e474 e4bc
000000e0: b067 243e f35b 073c 89bf 29bc 9a5d 2cbb
000000f0: b86f 393e f129 10be 286b 543e d2f2 a23d
00000100: c137 4b3e f8f6 16be 6f4a 963a 4b17 3f3d
00000110: f3de 833c 5df6 a23a 0fc5 2d3e 1998 69bd
00000120: cf8d 043e 9580 62bd c6d6 fabc 6e44 1bbe
00000130: 6e76 2abb 41ca af3d d271 6ebc e943 22be
00000140: 025b 1b3c 5574 0ebe d52d cebc b761 ad3c
00000150: d828 af3b 3ead 84ba f5f3 9ab9 ae0e 393e
00000160: ee43 a2bc 6892 e63d 793d 183b 1bad 2e3e
00000170: f6a7 3a3e 63d9 163d af35 363e bb11 553e
00000180: eede 743e eeaf 993d ab32 c1bc 6b36 19be
00000190: d7ea a53d 7b26 113e 53a1 063e 9034 b6bd
000001a0: c851 4a3d 22d5 6d3d 0802 663d 1130 4f3e
000001b0: 0eb5 25be 6471 403e ce03 803e 7f2d 203e
000001c0: 38ae d1bc 1ded 273e 31a7 2f3e c6c9 2e3e
000001d0: 4b6b d83c f64e 31bc 8193 3a3b 4138 313e
000001e0: f04c 283e c81f c93c 6139 213e 4de8 273e
000001f0: 7122 1a3e d63e 343e 256e 71bd 01b3 213e
00000200: 5cf7 ac3c 3ea1 fabd deee f13b e39d a93b
00000210: 0ca2 2f3e e641 04be 126d 183b bbe9 97bd
00000220: 839f 7d3a 7d7d f43d a5d4 d23c 46e3 5a3e
00000230: d47e fabc 256f 4c3c f050 ffbd 1203 3d3e
00000240: 0043 c73c d156 283e dd75 2e3e a705 553e
00000250: a90a ec3d 5558 eebd 01a9 d53c a288 213e
00000260: d400 293e e94f 5e38 809f 2a3b 4f10 e0bb
00000270: d6c4 a33b 3633 69bd 5a86 f7bd bf4c 203e
00000280: 1173 453e b26c 243e b1ea 023d 353a d43c
00000290: ccb2 3e3e eb8c 1b3e d559 3e3e dbff 323e
000002a0: 68b6 f73d d908 26be 063e eb3c e2df 51bc
000002b0: f8f4 d9bc 5908 433e 5dc6 ee3b 6690 d2ba
000002c0: fd76 563e baf0 2fbe 1525 d13d 66a2 253e
000002d0: cb77 5a3e 2007 89bd 0ed0 383e dd74 43be
000002e0: f262 213e 6a9d 313e cdc7 46bc efae 463e
000002f0: b022 383e 9590 88b7 df5b 8d3d 5e7c 193e
00000300: a1c8 2d3e 1586 453e ca12 01bd e0e9 f93d
00000310: 2e75 003c 250e a43b d6c0 25b9 e169 a7bd
00000320: 79b1 f93d 6407 103d bc3b 303c c09b 5abc
00000330: b78e 79bc 7505 173e 0f8e 4e3e 687e 97bc
00000340: 59d5 61bc 3df3 263e ba53 873c 0938 10be
00000350: a8ac 2c3e f7d8 ad3d 8d09 2b3e 6826 7c3d
00000360: 07f3 3a3e 3211 343e 48ed 5a3e 6084 09bc
00000370: 30fe 533e 2385 4a3e 4eea 123e c8e9 0bbe
00000380: f9ee 363e 39ff 58bc 3ac4 eabd e4f7 3a3e
00000390: 20fd d23d 2262 573e a4b6 03bb 453f fbbd
000003a0: b045 93bb 89c0 373e 1e28 af3c 809d afbc
000003b0: c33e 553e dfa3 13be 9a43 2e3e 2ac8 57bd
000003c0: b1f9 11bc 6f2f 0a3e bf6a 283d 2ce3 0c3e
000003d0: 05ca 13bc 0eb0 bf3d 3c04 dcbc 3a0a 8fbd
000003e0: 9c61 5e3c 6274 ed3d 16cc 493e 8061 3f3e
000003f0: 8e65 8f39 d566 173e 0227 0dbe 564f 403e
0.17288801 0.19532715 0.14501671 -0.1415479 0.12959842 0.14569621 -0.13571224 0.1668845
0.013049203 0.20719184 0.18912236 0.17060909 0.092130765 0.17926264 0.18767582 0.10174703
-0.00012491229 -0.110306546 0.18373583 0.17859358 0.2090411 -0.010136068 -0.025654314 -0.111664996
0.11842875 0.14126603 0.13992348 -0.055399343 0.19261856 0.12645234 0.074732736 0.15887415
0.19260848 0.18005505 -0.0035329044 -0.038674146 -0.026344124 0.0063974843 0.17434487 0.20866987
-0.006118601 0.17910656 0.18438676 0.15782337 0.17155747 -0.02308554 -0.022549022 0.12537982
0.16956155 0.16480888 0.09197178 0.07503806 0.2333385 0.012347373 0.09597162 -0.027887769
0.16055179 0.0082616685 -0.010360607 -0.0026300908 0.18109024 -0.140785 0.20744002 0.079564705
0.19845487 -0.14742649 0.0011466275 0.046653073 0.016097521 0.0012433041 0.16969703 -0.057029817
0.1294472 -0.055298407 -0.03061999 -0.15162823 -0.002601053 0.08583499 -0.014553504 -0.15846218
0.009482147 -0.13911565 -0.025168339 0.021164758 0.005345445 -0.0010122431 -0.0002955493 0.18072006
-0.019807782 0.112583935 0.002323 0.17058222 0.18228135 0.03682841 0.17793916 0.20807545
0.23913166 0.07504259 -0.02358373 -0.14962165 0.08101433 0.14174835 0.13147478 -0.08896744
0.0493944 0.058064587 0.05615428 0.2023318 -0.16182348 0.18793255 0.25002903 0.15642355
-0.02559577 0.16399045 0.17153622 0.17069158 0.026418349 -0.010822048 0.0028469267 0.17306615
0.164356 0.024551287 0.15744545 0.1639721 0.15052201 0.17602095 -0.058942933 0.15790941
0.021114044 -0.12237786 0.0073832115 0.0051762923 0.1715166 -0.12915763 0.002325837 -0.074176274
0.0009674953 0.119379975 0.025736162 0.2137576 -0.030578054 0.012477671 -0.124666095 0.18458202
0.02432394 0.16439368 0.17037149 0.20802937 0.11525471 -0.11637942 0.026081564 0.15774778
0.16504222 5.3003347e-05 0.002603501 -0.0068378816 0.00499783 -0.056933604 -0.120861724 0.15654276
0.19282176 0.16057089 0.0319621 0.025906662 0.18622893 0.15190475 0.18588956 0.17480414
0.12095338 -0.16214313 0.028716099 -0.0128097255 -0.026606068 0.19046153 0.0072868303 -0.0016064763
0.20943828 -0.17181674 0.10212151 0.16175231 0.2133476 -0.06690812 0.18048117 -0.19087549
0.15760401 0.17345205 -0.012132597 0.1940267 0.17981982 -1.627979e-05 0.06902289 0.14988849
0.16971065 0.1928943 -0.03151206 0.12202811 0.007840438 0.005006569 -0.00015807463 -0.08174492
0.12192053 0.0351633 0.010756429 -0.013342798 -0.01523178 0.14748175 0.20171379 -0.018492892
-0.013783776 0.16303726 0.016519416 -0.14083876 0.16862738 0.084886484 0.16702862 0.061560065
0.1825677 0.17584684 0.21379578 -0.008393377 0.20702434 0.1977735 0.14347193 -0.13663399
0.17864598 -0.013244444 -0.114632085 0.18258625 0.10302186 0.21033528 -0.0020097876 -0.12267927
-0.0044943914 0.1794454 0.021381434 -0.021437407 0.20824723 -0.1441798 0.17017975 -0.052681126
-0.008909629 0.13494657 0.041117426 0.13758534 -0.009020333 0.09359752 -0.026857488 -0.069843724
0.013573077 0.11594464 0.19706759 0.18689537 0.0002735075 0.14785321 -0.13784412 0.18780264

nn_layers.1.bias f4 [9]
00000000: 19da a13d df70 e43d 90b6 c93d cdfb d43d
00000010: e092 a83d cdd2 cb3d 5d89 0a3e 3bf0 d63d
00000020: 4dd0 bf3d
0.07902927 0.11154341 0.09849274 0.1039959 0.08231139 0.099523164 0.13528962 0.10495039
0.09365902
